data.pth (torch, 10602 bytes, 6 tensors)

l1.weight f4 [8, 140]
00000000: d064 8abe c937 583f 786d 253e 3857 91be
00000010: 761b 843e 672f 84bf 2cf8 533f eb6e 8abe
00000020: 1b29 adbe 15ad c53e a8ea 023f cbb1 76bc
00000030: 8521 4cbe 8d86 7fbf 65ca 68bf 187e 183e
00000040: d599 63be b623 73be 4618 8e3f 3a74 18be
00000050: c05d 89bf 31bb 9dbf 8de8 7ebe c900 d4be
00000060: d526 84bf dc30 a6be 6fbd 46be 5ba0 96bf
00000070: 4bb1 b4be d6ee 0ebe 6a2f b13f 6eca 7a3f
00000080: bbd5 643f 5946 9b3e 04fe 46be c475 b63f
00000090: fca9 a03f 4a29 1fbf beb6 943f 7a41 0dbd
000000a0: 90a1 d1be 3c25 89be fc84 393f fa25 8dbf
000000b0: 9c1e 8c3f 3949 7fbf 1fc1 1bbf 113c 333f
000000c0: 9762 91be 6389 023f f344 863e dbcd 103f
000000d0: d87f 0c3f 39e4 23be bae5 303e 5115 903d
000000e0: 82de 053f fa58 023f b739 adbe c52a e0be
000000f0: 6788 59be 073e d2be 3af1 e4be 4a05 e5be
00000100: f4b2 13be 7765 1cbf 3abe 343f 23c8 153f
00000110: 4084 97be 285d 903e 8bf8 1bbf 56ae 1bbf
00000120: a8cf a93f 6074 f2bd afc2 003f 064d aabe
00000130: b005 343f 7152 97bf 048d 05be 388d 843c
00000140: 5e8e abbe 86c4 433f 26c0 c43f 3510 183f
00000150: 1480 f43e 891d eb3e c72c 92be dd0a 0abf
00000160: b5b0 1bbf 54d5 f83e d0ab 89be 51a0 fc3e
00000170: fdb4 103f bb1a a43e 4ad4 46be e485 29bf
00000180: f39e 09bd 1620 30be 32d4 1bbf 8bbc 82be
00000190: 1110 363e 038f 963e 2766 4b3f a514 4dbf
000001a0: 5c68 8a3f 4d66 d53f cfeb 1bbf 5388 f53f
000001b0: 7caa aabe ece0 2f3f 65c3 9c3f 1975 3c3e
000001c0: e7cc 1bbf eb16 103e f0f1 5b3f a432 acbe
000001d0: c109 13bf 3725 e23e 5c42 9c3f 9944 213e
000001e0: 88f2 b23e 035a e23d 44d3 9a3d 6216 2fbe
000001f0: 7f12 b83f 0071 963f bdf9 52bf 4778 f83e
00000200: f4c6 a83d 6be0 f53f 90e7 1bbf 8c2d bb3e
00000210: e5d7 663f e7f6 5a3f d641 a73f 56ca ed3e
00000220: b6c5 603e 11b4 1bbf 6f9e ca3e 8660 343f
00000230: 4363 18bf 8997 18bf a85b e4bb a5b1 8c3f
00000240: d5f9 d5bd 21bd 553f 53eb 67bf 504f 0bbf
00000250: fe06 0d3f fa39 1c3f 99e4 a1be 69bb 2f3e
00000260: 6af5 c2be 4735 003f cc72 d0be d6b4 253f
00000270: 5c06 1b3e 54b5 813f a891 dfbe d6c7 2e3f
00000280: ba70 963f 6119 473f 71d2 a73f 25ca eb3f
00000290: 673c 863f 72fa 953f ca57 683f 2deb 4f3f
000002a0: d398 a73e dc4d c03d f46c 643f eb36 783d
000002b0: 4c09 833d 2e5b bcbd 2673 823f 4862 e03f
000002c0: 8e5c 0d3e b7f9 dfbe 55c4 f1be 3d34 90bf
000002d0: aa93 00bf 53b2 233e 0315 2ebe 2dc6 dcbe
000002e0: 1fbd dfbe ae9c 083f ad38 dfbe 550d b63e
000002f0: 4530 48be 3781 e3be 61a0 773f e803 dfbe
00000300: 9a33 e2be 3d03 d53e d716 92be 511d 1d3f
00000310: 8eb5 dfbe 89d6 a4bd 4c01 83bf 7889 113f
00000320: 36fe 4e3c d6b6 453f ff84 4a3e 810e 103f
00000330: 3e45 2c3c 6c01 843f 4a82 24bf 58d3 16bc
00000340: 2753 74be 43cd 473f 5737 dfbe 9890 dfbe
00000350: 7a54 043e dcd0 cebc 56dc 6bbe d887 86be
00000360: 0376 4fbf 2112 683f 23ce 143e ad43 fe3e
00000370: 308a 8abf 3c51 35bd f20b dfbe 70e7 3fbe
00000380: 6b37 dfbe 9320 e0be 18db 4b3f 008b 8bbe
00000390: 1d91 dfbe 7ef3 57bf 07ef b53f 2b1c 383f
000003a0: 0f42 473f 51c3 fcbd dd5b 863f e0cc 243f
000003b0: 2451 bcbe 5c73 e0be c444 dfbe b3d5 813e
000003c0: 4fe9 9bbe 720f afbd 96e6 58bd df7b 05bf
000003d0: 4c8e e43e 73bb 57bf 197b 3c3e 31de d83f
000003e0: 7d20 5c3f a933 463f 7d77 c83f 0a82 963e
000003f0: 3d5b 4f3f b6b2 bfbc aa5f 54bf 4069 1fbf
-0.2703004 0.8446012 0.1615504 -0.28386855 0.258022 -1.0326966 0.82800555 -0.2703775
-0.33820423 0.38608614 0.5113931 -0.015057038 -0.19934662 -0.99814683 -0.9093383 0.14891851
-0.22226651 -0.23744091 1.1101158 -0.14888087 -1.0731735 -1.2322751 -0.24893399 -0.4140685
-1.032435 -0.32459152 -0.194082 -1.1767687 -0.35291514 -0.13958296 1.3842595 0.97965133
0.89388627 0.30327109 -0.19432837 1.4254689 1.2551875 -0.6217238 1.1618268 -0.03448627
-0.40943575 -0.2678622 0.72468543 -1.1027215 1.0946841 -0.99721104 -0.60841554 0.7001353
-0.2839553 0.50990885 0.2622448 0.5656411 0.54882574 -0.16005029 0.17275134 0.07035316
0.52292645 0.5091702 -0.33833095 -0.4378263 -0.2124344 -0.41062948 -0.4471529 -0.44730598
-0.14423734 -0.61092323 0.7060276 0.5850851 -0.29593086 0.28196073 -0.6092612 -0.6081289
1.3266497 -0.11838603 0.50297064 -0.3326189 0.7032118 -1.1822034 -0.13042074 0.01618062
-0.33507055 0.76471746 1.5371139 0.5939973 0.47753966 0.4592097 -0.28549787 -0.53922826
-0.6081651 0.48600256 -0.26888895 0.49341062 0.56526166 0.32051644 -0.1941692 -0.66219926
-0.03359885 -0.1719974 -0.6087066 -0.25534472 0.17779566 0.29405984 0.7945275 -0.80109626
1.0813098 1.6671845 -0.6090669 1.9182228 -0.33333194 0.6870258 1.224713 0.18404044
-0.6085953 0.14071243 0.8591604 -0.33632386 -0.5743676 0.44169018 1.2207751 0.15748824
0.34950662 0.110523246 0.07559827 -0.17098382 1.4380645 1.1753235 -0.8241232 0.48529264
0.08241072 1.9209112 -0.6090021 0.36558187 0.9017318 0.85532993 1.3066967 0.46443433
0.2195042 -0.60821635 0.39574 0.70459783 -0.5952646 -0.59606224 -0.006968934 1.0991713
-0.10448042 0.8349171 -0.9059345 -0.54417896 0.55088794 0.61025965 -0.3161972 0.17161335
-0.3807786 0.50081295 -0.40712583 0.6472906 0.15139145 1.0133462 -0.43665814 0.68273675
1.1753151 0.777731 1.3111097 1.8421065 1.0487183 1.1717055 0.90758955 0.81218225
0.32733783 0.093898505 0.8922875 0.06059925 0.063982576 -0.09197079 1.019139 1.7529993
0.13804838 -0.43745205 -0.47220102 -1.1265942 -0.5022532 0.15985994 -0.17000203 -0.43119946
-0.43698975 0.53364074 -0.43597928 0.35557047 -0.19549663 -0.4443452 0.96729094 -0.43557668
-0.44179994 0.41604033 -0.2853305 0.6137286 -0.43693203 -0.08048732 -1.0234771 0.56850386
0.012633851 0.7723211 0.19777296 0.5627213 0.0105145555 1.0312934 -0.64261305 -0.009205662
-0.23859845 0.7804758 -0.43596908 -0.43665004 0.1292285 -0.025246076 -0.2303327 -0.26275516
-0.81039447 0.9065266 0.1453176 0.49661008 -1.0823421 -0.044266924 -0.435638 -0.1874063
-0.43596968 -0.43774852 0.79631186 -0.27254486 -0.436654 -0.84355915 1.421357 0.7191798
0.7783517 -0.12341941 1.0496784 0.64375114 -0.36780655 -0.43838012 -0.43607152 0.25358352
-0.30451438 -0.08547868 -0.05295428 -0.5214214 0.44639814 -0.842704 0.18406333 1.6942807
0.85987073 0.7742258 1.5661465 0.29396087 0.80998594 -0.023400646 -0.8295847 -0.62269974

l1.bias f4 [8]
00000000: c2a0 1a3f a6ff dc3e 8ebf bf3f 0cd0 5a3f
00000010: 3cac 893f c8fe 4e3f 600e 0d3f eaaf 8b3f
0.60401547 0.43163794 1.4980333 0.85473704 1.0755687 0.80857515 0.5510006 1.091306

l2.weight f4 [8, 8]
00000000: 6e3d 33bf 467c 3fbd 9f0e 5f3e ed2f 4a3e
00000010: dd93 1f40 6509 1ebf 9364 47bf 1929 a2bd
00000020: 99de 003f f929 f43f b929 533f 7898 8cbf
00000030: a452 523f dfc7 c33f 7284 a33f d426 7bbf
00000040: b06d c3bd eb51 98bf 2dfb ca3f c75e a6be
00000050: 0547 84bd 93ea d53f 5189 b2bf de90 0640
00000060: a3c0 a93f a900 ef3d 9836 03bf 7fc4 db3d
00000070: 7237 183f b12f 0d40 7927 8dbe f264 0640
00000080: e456 0ac0 980d fa3f 7854 1440 b044 fcbc
00000090: d475 95be 42f2 4dbf 542d 263f f425 c73e
000000a0: 50fe e13e ad24 97bc 684b 4d3f 4517 8dbf
000000b0: 86ac f63f 6482 b7bf f2f6 9fbe 2672 80bd
000000c0: 6c0e bb3f 6a7e c53f 019e 643f 71a8 86bf
000000d0: 454b a83e be60 03bf 6697 98be f40b 503e
000000e0: 4599 0040 588f 85bf aafc 9f3f df5b 2d40
000000f0: a62c 4e3f c737 4fbf 6c96 1540 e0c6 78bf
-0.7001561 -0.046749376 0.21782921 0.19744845 2.4933999 -0.61733085 -0.7788784 -0.07917995
0.5033966 1.9075309 0.8248554 -1.098403 0.8215735 1.5295371 1.2774794 -0.9810612
-0.095424056 -1.1899999 1.5857903 -0.32494184 -0.064588584 1.6712211 -1.3948156 2.102592
1.3261913 0.11670048 -0.5125518 0.10730838 0.594596 2.2060359 -0.27569178 2.0999112
-2.1615534 1.9535398 2.3176556 -0.030794472 -0.29191458 -0.8044778 0.64912915 0.38896143
0.44139338 -0.018450106 0.80193186 -1.1022726 1.92714 -1.4336667 -0.31243092 -0.06271772
1.4613776 1.5429204 0.89303595 -1.0520154 0.32869926 -0.5131949 -0.29803008 0.2031706
2.0093548 -1.043437 1.2498982 2.7087324 0.8053688 -0.80944484 2.337306 -0.9717846

l2.bias f4 [8]
00000000: 81f6 873f 8ec2 04bf 285a 863f c343 c03e
00000010: 2724 873f 5a27 aa3c e741 2abf 2929 7b3f
1.0622102 -0.51859367 1.0496264 0.37551698 1.0557908 0.020770717 -0.6650681 0.9810968

l3.weight f4 [36, 8]
00000000: b610 743e 7bdc 0fc0 f270 aa3d e0d3 afbf
00000010: 7c72 093f ae0a 85bf c4b8 61c0 34d9 043f
00000020: e2a0 12c0 2c60 a9be 5c05 d2be fbd7 91bf
00000030: 924b a2bd c646 113e b431 463f ff47 0bbe
00000040: f2d7 d8be 4d86 db3e 522a 0ac0 09f2 c9bf
00000050: 7b21 c6bc 7162 31bf 4108 18bd e8e9 e83e
00000060: bee8 63bf 18ce 17bf f7b0 7cbe 24ab c7bf
00000070: 487c 5d3f 9ebf 853e 5937 003f 2ce0 c3bf
00000080: e023 3d3e 2b79 953e 7956 81c0 08ce 9abf
00000090: b55a 21bf 3ac7 2d3f 9aca 1c3f 2459 36be
000000a0: a6cd 753e 4cbe 61bd 1d9c ea3e 8aef 14bf
000000b0: 3520 42c0 2a57 a4bd 9262 93be 8153 28bf
000000c0: 2d10 963d 3127 293d 2151 00c0 6db1 46c0
000000d0: 6695 8b3f 9881 003e a64f 87bf 2699 4b3e
000000e0: 4955 38c0 e71a e23e cf57 053e 4917 58bf
000000f0: 815c 483f 921a 30c0 8754 5a3e 4e3c 0ec0
00000100: 7cbb 6d3f af4c 64bc c13a 50c0 968b 2cbf
00000110: 3458 543f 5451 83c0 9255 033e b2de 1ebd
00000120: dce7 5bc0 f9f4 81bf 3270 cd3e 450f b63e
00000130: 65de a53e 2208 29c0 cb6b 77c0 da4e 1ebf
00000140: 9a1a 1cc0 6f96 523f 753a 09bf bf19 aabe
00000150: 087f 16bf 5c3f 4bc0 a830 debd c582 fe3d
00000160: e91c 48c0 8776 15be bc4f 14c0 2f43 ffbe
00000170: c418 e0bf d54e dfbe 4ad9 183f 266f 123f
00000180: a36b 40bf 640a 2bbf 1cf2 d1bc d8b9 8abf
00000190: ec8b 313f d11a 87c0 16b4 f2be f4f8 a73e
000001a0: 027f 7cc0 763c b13d 2d0d d63d 51d0 de3e
000001b0: 0081 19be 1563 18c0 e6ed 8d3d 2911 dbbf
000001c0: bd35 4ac0 2fd3 a3bf e2a5 333e 6acf 993e
000001d0: 1c0c cfbf 8c27 48c0 abaa 37c0 26f4 263f
000001e0: b658 bd3e 86c2 47bd 3e91 73bf e1c8 26bf
000001f0: cf8a 36bf b06f b5be 24f1 ffbf 85fd 043f
00000200: c4c3 c33f a797 c4bf c708 91bf a1a0 98bf
00000210: e7da 47be 4f43 623f e1c3 3fc0 33b9 053e
00000220: f028 8b3f 1a7a 6ac0 e878 183f c65a 70be
00000230: 52f8 0d3f 4677 5b3e 4f4a 1ac0 486f d6bf
00000240: ed4e 373f 554d babf b0a9 29c0 8d00 aebf
00000250: 6af6 0bc0 102d 3ec0 6026 41bf c1a2 a33f
00000260: 042e 9f3e f8f0 81bf f10e c23e d4b0 81be
00000270: 2c54 1abf 0a0b a8bf dc0a cebf 7ec8 f4bd
00000280: 29d9 f33d 3d40 efbe cb16 f43e ddee a43e
00000290: 98e7 963e c966 89c0 a5d0 68bf 6db3 7ac0
000002a0: 3fc0 1ac0 ea4a 9fbe 0bd7 26c0 402c 09c0
000002b0: 7b91 383f 2358 59c0 5da8 ecbf 416a 833f
000002c0: 1f18 1bc0 e51f 42c0 adec 0a3f ff27 793d
000002d0: 2824 03c0 6d6d f0bd db32 f73e 316a cb3c
000002e0: c703 c23e c712 b8bd a192 19bf 4972 0ebf
000002f0: bf3b d7be 8094 393f b21f 423e e012 bcbf
00000300: 05cd 313f 1e68 5bc0 d1e9 843e f48a 073f
00000310: 5234 2cc0 6176 6fc0 7137 58c0 c5b8 853b
00000320: f5f4 7dbf 28cd 14bf 68ec 51bf c44b 89bf
00000330: 64bb e5be 6b32 14bf 0978 febe c5ad 83bf
00000340: 7478 49be 52ff 703f 8315 c9bf 3456 abbe
00000350: f6b1 b43d 37dc 2dbf 032b 423e adc3 cbbf
00000360: e1fc 573e 0f32 6a3e 16f5 2cc0 62d1 2dc0
00000370: 0de5 123f 0e6e f23e e001 383f 64df 41bf
00000380: 330e 4fbf 7999 aa3e 8803 1ec0 419f e13e
00000390: 5263 2bc0 f7d4 53c0 19f5 76bf 0434 fd3e
000003a0: 0bc0 22bf 7fd6 4fc0 7ecb 633f 406b 8a3f
000003b0: 8836 bfbf a959 3cc0 b602 74c0 2bc0 35c0
000003c0: cd46 fd3d 4fc1 f0bf 49e3 8a3d f5c0 80bf
000003d0: f7a0 2dbe 2897 d53e 3ef5 7d3e 7080 acbe
000003e0: 490c 463f d29b c6be 338d c5bd 5493 36c0
000003f0: 156c d33e 663b eb3e d1a7 24bc 6837 3dbf
0.238345 -2.247832 0.08322324 -1.3736534 0.53690314 -1.0393884 -3.5269022 0.51893926
-2.2910695 -0.33081186 -0.41019714 -1.1394037 -0.0792457 0.14187154 0.7741959 -0.13601683
-0.42352253 0.428759 -2.158833 -1.5776988 -0.024185887 -0.69290835 -0.037117247 0.45490956
-0.8902701 -0.5929885 -0.24676882 -1.5599103 0.86517763 0.26122755 0.50084454 -1.5302787
0.18470716 0.29194006 -4.0418057 -1.2094126 -0.6302903 0.6788212 0.61246645 -0.17807442
0.2400423 -0.055113122 0.4582223 -0.5817801 -3.0332158 -0.08024438 -0.2878614 -0.65752417
0.07327304 0.04129714 -2.0049517 -3.1045792 1.0904968 0.12549436 -1.0571182 0.1988264
-2.8802054 0.4416115 0.13021778 -0.8441053 0.7826615 -2.7516217 0.21321307 -2.2224307
0.92864203 -0.013934298 -3.253586 -0.6740049 0.8294709 -4.1036777 0.12825611 -0.038786598
-3.4360266 -1.0152885 0.4012466 0.35558525 0.32396236 -2.6411214 -3.8659542 -0.6183907
-2.4391236 0.82260793 -0.53604823 -0.33222768 -0.58787584 -3.1757421 -0.10849124 0.12427286
-3.1267645 -0.14595996 -2.3173666 -0.49855945 -1.7507558 -0.43614832 0.59706557 0.5720085
-0.7516424 -0.6681273 -0.025628142 -1.0837965 0.6935413 -4.2220235 -0.4740302 0.32807124
-3.945252 0.0865411 0.10451732 0.43518308 -0.14990616 -2.3810475 0.06930141 -1.7114612
-3.15953 -1.2798823 0.17543748 0.30041057 -1.617557 -3.1274137 -2.8697917 0.6521629
0.36981744 -0.048769496 -0.95143497 -0.65150267 -0.71305555 -0.35436773 -1.9995465 0.5194934
1.5294118 -1.5358781 -1.1330804 -1.192402 -0.19517098 0.88383955 -2.9963305 0.13058929
1.0871868 -3.6637025 0.5955949 -0.23472127 0.5545703 0.21432218 -2.4107854 -1.675271
0.71604806 -1.455485 -2.650982 -1.3593918 -2.186915 -2.9715004 -0.7544918 1.2784044
0.31089795 -1.0151663 0.37902024 -0.25330222 -0.60284686 -1.3128369 -1.6097064 -0.11952303
0.119066544 -0.46728697 0.4767364 0.32213488 0.29473567 -4.293797 -0.90943366 -3.9172013
-2.4179838 -0.31111842 -2.6068752 -2.1433258 0.72096986 -3.3960044 -1.848888 1.0266801
-2.4233472 -3.0331967 0.5426739 0.06082916 -2.0490818 -0.11739621 0.48280987 0.02483091
0.37893507 -0.089879565 -0.5998936 -0.55643135 -0.4203777 0.7249222 0.18957403 -1.469326
0.6945346 -3.4282298 0.25959638 0.529464 -2.6906934 -3.7416003 -3.3783839 0.004080864
-0.992019 -0.58125544 -0.8200135 -1.0726247 -0.4486953 -0.5788943 -0.49700955 -1.0287405
-0.19674855 0.9413959 -1.570969 -0.33464205 0.08823006 -0.67914146 0.1896172 -1.591909
0.2109256 0.22870658 -2.7024589 -2.7159047 0.57380754 0.4734959 0.7187786 -0.7573149
-0.8088104 0.33320215 -2.4689655 0.44066814 -2.677937 -3.3098733 -0.9646774 0.49453747
-0.63574284 -3.2474668 0.8898238 1.081398 -1.4938517 -2.9429724 -3.8126655 -2.839854
0.1236702 -1.8808993 0.067816325 -1.0058886 -0.16955934 0.41716886 0.24800584 -0.3369174
0.77362496 -0.38790756 -0.09646072 -2.8527422 0.41293398 0.45943755 -0.010049776 -0.7391267

l3.bias f4 [36]
00000000: 4356 343d 0d12 0abf 297c b9be 113c a4be
00000010: e301 23bf e98e 17bf 567b d4be 0912 74bd
00000020: 4d6f e53d 2915 1c3f 95e8 623e e9d0 c93e
00000030: 222f 023e 0d85 f9be 1780 d43d 3975 953e
00000040: 3e8b ee3e 9b1e 0c3f 1cb5 933e 98c2 30bf
00000050: 48ae 1abe d124 823e 3530 9d3e dfcb 2dbf
00000060: 7bd4 a03e 1eab 42bf 74e4 cfba b178 1abe
00000070: 8333 be3e dab4 d33e 7677 dabe 1b67 a53b
00000080: ea76 5a3e 1f1c edbe b760 75be 122a 0d3e
0.044027578 -0.53933793 -0.3622754 -0.32077077 -0.63674754 -0.5920244 -0.41500348 -0.059587512
0.112028696 0.6096979 0.22159036 0.39417198 0.12713292 -0.48734322 0.10375994 0.29190996
0.46590608 0.547342 0.28849113 -0.69046926 -0.15105546 0.25418714 0.30700842 -0.6788921
0.3141211 -0.76042354 -0.0015860931 -0.15085103 0.37148675 0.41348916 -0.42669266 0.0050476915
0.21334425 -0.46310517 -0.23962675 0.1378558
